app/DATA.pth (torch, 19189 bytes, 14 tensors)

linearlayer1.weight f4 [8, 237]
000000 5c 5e da be 64 55 86 bc 43 39 ce bd 97 ed 2f c0
       -0.42650115 -0.01639814 -0.100695156 -2.7488763
000010 c3 eb d7 bd 16 e5 36 bf 2d 66 c8 bd 99 0e 11 bf
       -0.10543015 -0.7144331 -0.097851135 -0.566629
000020 bd d2 20 3e 4e 04 68 3f fd 87 0f c0 a0 21 aa 3d
       0.1570539 0.9063157 -2.242675 0.08307195
000030 13 05 0a 3e 7b d5 9a bd 0f db c0 3f 52 ee 2e 40
       0.13478498 -0.075602494 1.5066851 2.733296
000040 d1 92 d2 3f f7 c1 ae bf d5 2b da 3c e0 4c 90 be
       1.6451055 -1.3652943 0.026632229 -0.2818365
000050 4b 8c 54 c0 c5 89 6f bf 27 3f 1b 3e eb 5e 1e 3f
       -3.3210628 -0.93569595 0.1516081 0.61863583
000060 ce 69 95 3f f0 3c 3b be c9 b1 a3 3f b0 bc c3 3f
       1.1672914 -0.18284965 1.2788631 1.5291958
000070 a7 7e ab 3f ba 65 92 be 06 fa 0a 3f 16 b3 7b b9
       1.3398026 -0.28593236 0.54287755 -0.0002400394
000080 d6 6f cd 3f 0a 00 09 40 f3 76 bd 3d 4f a0 19 3f
       1.6049755 2.1406274 0.092512034 0.60010237
000090 b3 23 5a bf 6e 28 a3 bf 89 e7 61 40 53 bf 15 3e
       -0.8521072 -1.2746713 3.5297568 0.14623766
0000a0 fd 2c 20 be cf 00 cd 3e 45 47 01 bf d2 ad 6a 3e
       -0.15642162 0.4003968 -0.50499374 0.2291787
0000b0 77 63 0a c0 50 e1 32 c0 51 24 82 bf 51 eb 6e bf
       -2.1623209 -2.795002 -1.0167333 -0.93327814
0000c0 25 7b da bf 07 01 09 3f d3 32 c2 bf f7 2e db bf
       -1.7068831 0.5351719 -1.517176 -1.7123708
0000d0 bc 8f 76 be bc 5f d1 3f 56 b2 ea be 49 fb 35 bc
       -0.24078268 1.6357341 -0.45839185 -0.011107274
0000e0 fa 92 08 bf 75 02 92 3f ef 9d 00 bf 4a b9 29 bf
       -0.5334927 1.1407 -0.5024099 -0.66298354
0000f0 ea d5 84 3d 8e bb e4 3f d3 6a 9e be c9 55 3d bd
       0.06486113 1.7869737 -0.30940875 -0.04622439
000100 36 47 1d 3f 45 6b 97 3f bf 62 75 bf 94 a0 bd be
       0.61436784 1.1829611 -0.958538 -0.37036574
000110 4f 5d 10 3e 02 4c a7 be 3e 1e 2c 3f 5c 67 4e 40
       0.14098094 -0.32675177 0.67233646 3.2250586
000120 df 3c 8a 3e 1c e6 a1 bf 66 2b fb 3f f7 be e5 be
       0.26999566 -1.2648349 1.9622619 -0.44872257
000130 44 75 73 bd cd ee 08 3f 21 04 27 3f e0 a2 22 3f
       -0.059438005 0.5348938 0.65240675 0.6352978
000140 af 31 2a 3e 1f 3f 98 3d 43 39 48 be 3c 27 6f bf
       0.16620515 0.074339144 -0.19553094 -0.9341924
000150 6e ff 87 3f 37 c8 54 3e 81 87 29 3e 4a fd 0d 3a
       1.0624826 0.20779501 0.16555597 0.0005416466
000160 8b 99 0a 3e 7c d1 25 bd 6d 1c bf bf d2 ad 2d 3f
       0.13535134 -0.040482983 -1.493055 0.67843354
000170 10 9a ed 3e f2 c5 d9 3e 7f 7b c6 3e 9b 7b 3b 3f
       0.46406603 0.42533833 0.38766095 0.7323548
000180 85 ba 32 bf eb ee f0 3e ab 52 ff 3e eb fa 96 3f
       -0.69815856 0.4705728 0.49867758 1.1795324
000190 94 7e 67 3e 79 25 11 3f 85 ad d9 3f 46 d3 f0 3f
       0.2260688 0.56697804 1.7006079 1.8814476
0001a0 ed 83 47 c0 f1 5a 4e be 03 da a9 40 1c 25 36 3f
       -3.117427 -0.20151879 5.3078628 0.71150374
0001b0 44 cd 8c 40 28 10 86 3e f7 85 14 3f 88 f8 89 3e
       4.400057 0.261842 0.58016914 0.26947427
0001c0 ea cf 8e 40 29 e9 e4 3d 3b 95 9c 3f 4a 10 76 40
       4.46288 0.11177284 1.2233042 3.8447442
0001d0 06 42 f1 3f d6 9b ff 3e 24 61 45 40 af 77 af 3e
       1.8848274 0.4992358 3.084054 0.34271
0001e0 8b 14 da 3d 4c 51 ce be 2f c9 ba be 5a 68 10 bf
       0.106484495 -0.402964 -0.36481616 -0.5640923
0001f0 2b 63 c2 3c 04 eb 96 3c 09 59 aa 3f 52 54 06 c0
       0.023728928 0.018422611 1.3308421 -2.0988965
000200 05 81 21 c0 12 ca 48 bf 01 7b be bf 30 15 83 3f
       -2.5234997 -0.78433335 -1.4881288 1.0240841
000210 08 46 3d 3f 4e c6 31 40 5d 52 1f c0 a0 8b 9f bf
       0.73934984 2.7777286 -2.489402 -1.2464485
000220 73 82 14 bf 6b 98 ea bf b9 3f c2 3f 91 5e c7 bf
       -0.5801155 -1.8327764 1.5175697 -1.5575734
000230 c8 09 46 3e 1e 07 cc 3f c7 a2 2a 3f 88 ff 12 3f
       0.19339669 1.5939672 0.6665463 0.5742116
000240 7f 3f a3 bf 25 ba be be d0 5a 49 bf 7b db 4b 3d
       -1.2753752 -0.37251392 -0.78654194 0.04976986
000250 55 ed 94 3d 14 63 b8 bf 0e 52 84 be 67 9d 43 bf
       0.0727183 -1.4405236 -0.25843853 -0.7641205
000260 e0 69 7b be 90 6b b1 bf b3 d9 3d bf 00 f4 48 bf
       -0.24552107 -1.386095 -0.7416031 -0.78497314
000270 67 51 0d bf 82 8f db be b5 44 02 3e 24 66 22 40
       -0.55202335 -0.42882925 0.12721522 2.5374842
000280 ec 59 b5 40 c6 71 cb 3e f6 6b d4 bf 72 9d b9 40
       5.667227 0.3973524 -1.6595447 5.8004694
000290 42 cc e1 be a5 ee 23 3e 41 b0 8e 3d 67 13 a0 bc
       -0.4410115 0.16009004 0.069672115 -0.019540502
0002a0 61 1d 86 be 34 ab 24 40 b9 30 44 3e 88 34 32 bd
       -0.2619429 2.5729494 0.19159211 -0.04350713
0002b0 50 e6 4e 40 c9 77 4b 40 7b 14 ef bf 98 fb 08 40
       3.2328072 3.179186 -1.8678125 2.140356
0002c0 29 86 cb 3f 23 48 66 3f 3c 0b 2e bf 5c 3c d0 bf
       1.5900317 0.8995382 -0.6798589 -1.626842
0002d0 cb ef 74 be de 32 b0 bf 58 96 8c 3f e7 33 68 3e
       -0.23919599 -1.3765523 1.0983381 0.22676049
0002e0 f5 cb 25 bc 73 45 7a 3e c1 85 c6 3f 43 0c 06 3f
       -0.010119428 0.24440555 1.5509568 0.5236246
0002f0 dd 34 c7 3d f7 6e 16 3c 96 8a eb 3e 57 f4 c5 3e
       0.0972688 0.0091817295 0.4600417 0.3866298
000300 20 96 3d 3f 18 cc 1f 40 ea 6c 10 c0 75 a8 f0 3f
       0.740572 2.496832 -2.2566476 1.8801409
000310 d2 f8 a8 be 1f f8 81 be a2 e7 ab be 6c 6d 6f 3c
       -0.33002335 -0.25384614 -0.3357516 0.014613491
000320 b0 29 86 be bb 17 54 3d bc dd ef 3f e6 57 5b 40
       -0.2620368 0.051780444 1.8739543 3.42724
000330 46 bb 85 3f c3 ab 67 be dc 94 0f 3f 94 1f 4d bf
       1.0447776 -0.22624116 0.56086516 -0.8012631
000340 d2 19 ba be 47 f9 42 3f 13 ae 57 3f bc d5 c8 bc
       -0.36347824 0.7616162 0.8424999 -0.024515979
000350 f5 2b cf 3d 1f 70 7a 3e 02 0d 10 3d 60 95 53 bd
       0.10115806 0.24456833 0.035168655 -0.051656127
000360 4e c7 08 40 82 c6 05 3f b6 62 d2 3f cf 34 49 c0
       2.1371646 0.52256024 1.6436374 -3.1438482
000370 20 c0 86 bf 75 d1 a8 3d 5b 5d 63 3e 35 c8 fc 3e
       -1.0527382 0.08243076 0.22203581 0.49371496
000380 89 e1 23 3f 31 20 48 3e ca d3 d2 3d b2 79 a8 3f
       0.64016014 0.1954353 0.10294302 1.3162138
000390 9a a7 07 3f 2b 91 07 40 8b 08 1d 3f fb ee 7c 3e
       0.52990115 2.1182353 0.6134116 0.24700539
0003a0 3a bc ac bf 2f c2 fe 3e 95 0b 91 3d b4 46 b6 3e
       -1.3494942 0.49757525 0.07082287 0.35600817
0003b0 02 f1 79 3f 8b 09 96 3f cc 92 60 3e 64 97 3b be
       0.97633374 1.1721662 0.21930999 -0.1831947
0003c0 1f 85 10 c0 9d fb 61 3d 3d c3 9b 3f e6 8c b3 3c
       -2.258125 0.055171598 1.2168957 0.021917772
0003d0 70 01 09 c0 ed e2 02 be 9f 5f 6e 3f 2c c6 d3 bf
       -2.1407127 -0.12781878 0.93114656 -1.6544852
0003e0 3b 9c 69 be c4 22 15 bf b5 ab 19 3f 83 08 ab 3f
       -0.22813503 -0.58256173 0.6002763 1.3361973
0003f0 76 bf 2c c0 04 fa 58 40 b4 8f 32 bf 4e 9c 11 3d
       -2.6991858 3.3902597 -0.69750524 0.035549454

linearlayer1.bias f4 [8]
000000 66 f6 4b 3f ec 48 65 3f 64 1c 52 3f c2 95 82 3f
       0.7967285 0.89564395 0.8207457 1.0201952
000010 56 d8 05 3f a1 9b 87 3f 47 26 68 3f 8f 10 38 3f
       0.5228323 1.0594369 0.90683407 0.71900266

bn1.weight f4 [8]
000000 00 00 80 3f 00 00 80 3f 00 00 80 3f 00 00 80 3f
       1.0 1.0 1.0 1.0
000010 00 00 80 3f 00 00 80 3f 00 00 80 3f 00 00 80 3f
       1.0 1.0 1.0 1.0

bn1.bias f4 [8]
000000 00 00 00 00 00 00 00 00 00 00 00 00 00 00 00 00
       0.0 0.0 0.0 0.0
000010 00 00 00 00 00 00 00 00 00 00 00 00 00 00 00 00
       0.0 0.0 0.0 0.0

bn1.running_mean f4 [8]
000000 00 00 00 00 00 00 00 00 00 00 00 00 00 00 00 00
       0.0 0.0 0.0 0.0
000010 00 00 00 00 00 00 00 00 00 00 00 00 00 00 00 00
       0.0 0.0 0.0 0.0

bn1.running_var f4 [8]
000000 00 00 80 3f 00 00 80 3f 00 00 80 3f 00 00 80 3f
       1.0 1.0 1.0 1.0
000010 00 00 80 3f 00 00 80 3f 00 00 80 3f 00 00 80 3f
       1.0 1.0 1.0 1.0

linearlayer2.weight f4 [8, 8]
000000 8a f9 2d 3f bf 43 13 bf 18 ae 0a 40 e3 8b 97 bf
       0.6795889 -0.5752525 2.1668758 -1.1839565
000010 68 62 8c 3f 56 c8 ec 3f 8d 52 a2 3f ce 37 09 40
       1.0967531 1.8498638 1.2681442 2.144031
000020 32 b6 dd 3f 89 24 38 3f 34 fe 55 3f 06 23 90 3f
       1.7321227 0.7193075 0.8359101 1.1260688
000030 0a 7f 10 40 be 15 0a bf c4 6e d4 bf 2a 02 ad 3e
       2.2577538 -0.53939426 -1.6596303 0.33790714
000040 91 e1 0a bf 7f 7a a7 3f 62 86 09 be 7c 35 c6 3f
       -0.5425044 1.3084258 -0.13430169 1.5485072
000050 c8 04 e1 3f 9d d0 ae be d7 f7 64 3f 08 dd 97 bf
       1.7579584 -0.34143534 0.89440674 -1.1864328
000060 f6 f5 09 40 a4 40 54 be d4 9d de bf 86 05 11 3f
       2.1556373 -0.20727783 -1.7391915 0.56649053
000070 29 82 80 3e 06 12 97 bf 5c 03 3e 3f 31 d4 62 3f
       0.25099304 -1.1802375 0.74223876 0.8860503
000080 4e 66 d7 ba 6a 23 08 3f f2 82 e2 be 8d fa fc be
       -0.0016433687 0.5317904 -0.44240528 -0.49409905
000090 19 a9 2b c0 39 19 04 3e 13 f1 9e 3f c0 96 1e 3e
       -2.682196 0.12900247 1.241732 0.15487194
0000a0 f0 d8 26 bf 84 a1 8e bf ba 6b 3d 3f ca 33 13 40
       -0.6517477 -1.1143041 0.739925 2.300036
0000b0 04 36 c8 bf 14 29 89 bf 7d 7d 2a 3f 62 85 00 be
       -1.5641484 -1.0715661 0.6659773 -0.12550882
0000c0 52 3c 67 3f 2c 24 72 3f fe e3 c9 be a1 70 b8 be
       0.90326416 0.94586444 -0.39431757 -0.3602343
0000d0 c9 a4 ac be ed a5 d8 bf c7 b0 b6 3f 61 2f 55 3e
       -0.3371947 -1.6925637 1.4272698 0.20818855
0000e0 14 ac 82 3f 7f 7e 17 40 4b 72 d1 bf 4e bc ba 3f
       1.0208764 2.3670957 -1.6363004 1.4588716
0000f0 3d 54 b1 bf 15 c6 0a 40 e5 46 f0 3e d9 76 b8 bf
       -1.3853832 2.16834 0.46929088 -1.441127

linearlayer2.bias f4 [8]
000000 bb f3 e3 3e 8c 97 1c 3d ad d8 ce 3d 06 c5 48 3e
       0.4452189 0.038230464 0.100999214 0.19606408
000010 38 50 7a bd d5 da ed 3e e3 7d 7b be cf a5 2d 3f
       -0.06111166 0.46456018 -0.2455974 0.6783113

bn2.weight f4 [8]
000000 00 00 80 3f 00 00 80 3f 00 00 80 3f 00 00 80 3f
       1.0 1.0 1.0 1.0
000010 00 00 80 3f 00 00 80 3f 00 00 80 3f 00 00 80 3f
       1.0 1.0 1.0 1.0

bn2.bias f4 [8]
000000 00 00 00 00 00 00 00 00 00 00 00 00 00 00 00 00
       0.0 0.0 0.0 0.0
000010 00 00 00 00 00 00 00 00 00 00 00 00 00 00 00 00
       0.0 0.0 0.0 0.0

bn2.running_mean f4 [8]
000000 00 00 00 00 00 00 00 00 00 00 00 00 00 00 00 00
       0.0 0.0 0.0 0.0
000010 00 00 00 00 00 00 00 00 00 00 00 00 00 00 00 00
       0.0 0.0 0.0 0.0

bn2.running_var f4 [8]
000000 00 00 80 3f 00 00 80 3f 00 00 80 3f 00 00 80 3f
       1.0 1.0 1.0 1.0
000010 00 00 80 3f 00 00 80 3f 00 00 80 3f 00 00 80 3f
       1.0 1.0 1.0 1.0

linearlayer3.weight f4 [57, 8]
000000 37 dc 1c 3f 31 13 2a bf 1c 65 ce c0 c3 0f a0 c0
       0.6127352 -0.66435534 -6.4498425 -5.001924
000010 e0 cb 6e c0 a4 89 32 bf 2f e7 91 c0 f9 cb 42 c0
       -3.7311935 -0.6974127 -4.5594707 -3.0436995
000020 bd 4d 95 bf 44 e4 78 3f ad 19 43 bf dd 3e 5f c0
       -1.1664349 0.97223306 -0.76211053 -3.4882119
000030 e9 da 67 c0 31 ea c3 c0 22 a2 b1 c0 52 5b 4a 3f
       -3.6227362 -6.122338 -5.5510416 0.79045594
000040 c1 b5 ae be 8c a0 c9 bf 4c b4 9b 3d 78 7a a0 bf
       -0.34123042 -1.575212 0.07602748 -1.2537374
000050 52 43 64 be b0 7a c6 c0 8f e5 2c c0 5f 77 11 3f
       -0.22291306 -6.2024765 -2.7015111 0.5682277
000060 04 38 83 3d 4a d4 c9 bf 03 85 98 c0 4c 39 de be
       0.064071685 -1.576791 -4.766237 -0.4340309
000070 31 81 cb bd 2d fa fb bd 7a bc 60 3f 5d 8f 0a c1
       -0.09936751 -0.123035766 0.8778759 -8.660001
000080 c0 6b 1d bf fb 7c 18 3e 9d fb d1 be e8 07 ff 3d
       -0.6149254 0.14891426 -0.41012278 0.1245268
000090 52 bd 26 3e 6d 2a bf 3e 56 ba 24 3e ed 78 e6 be
       0.16283157 0.37337056 0.16086707 -0.45014134
0000a0 ac b6 1a bf 20 fb 0c bf 34 86 f7 bf 79 e7 e8 3f
       -0.60434985 -0.55070686 -1.933783 1.819564
0000b0 f9 92 9e bf a2 d2 ec bf 3e b8 e0 3e 22 69 9a c0
       -1.2388602 -1.850178 0.43890566 -4.8253336
0000c0 1e a1 02 c0 c7 42 0a c0 0b 85 a1 3d 63 11 e5 3e
       -2.0410838 -2.1603258 0.07886704 0.44739828
0000d0 e7 9b 1d 3f 2a dd 18 3e f9 db dc 3f 0b 86 1a bf
       0.61566013 0.14928117 1.725463 -0.60360783
0000e0 9b 1b a8 3e 3c 7d f4 bf 76 73 53 bf e2 9a ed bf
       0.3283356 -1.9100718 -0.82598054 -1.8562891
0000f0 bc 7a bb bf e2 e2 02 c0 7f 38 84 3f da 3c 8f c0
       -1.464683 -2.0450978 1.0329741 -4.476178
000100 37 ad aa be 2b d4 1c c0 0a f5 c0 3e 61 cf 8f bf
       -0.33335277 -2.4504497 0.3768695 -1.1235162
000110 92 73 e1 bd f8 b2 34 c0 c2 22 b2 3f db 2a 46 bf
       -0.110083714 -2.8234234 1.3916857 -0.7740914
000120 98 73 ad be 39 4e 47 bf 37 cd 01 c0 99 6f 72 3e
       -0.33877254 -0.77853733 -2.0281503 0.23675384
000130 7e dd 68 bf 10 97 a2 c0 e3 ff d3 3a 97 95 5e 3f
       -0.9096297 -5.0809402 0.0016174283 0.86947006
000140 36 e7 b4 be 07 83 a8 c0 c5 b7 16 bf a8 55 ae c0
       -0.3533265 -5.2659945 -0.5887416 -5.447956
000150 34 af c4 3f ff ab a0 3f ac 6a ea bf 7f 0b bb be
       1.5365968 1.2552489 -1.8313804 -0.36532208
000160 fb eb e2 c0 83 a8 98 be 5b ae 3c 3e ec 5b 25 be
       -7.091306 -0.29816064 0.18425886 -0.16148347
000170 b8 49 82 3e d8 24 05 3f 2c 4e 23 c0 8d bf db 3e
       0.25446868 0.52009344 -2.5516462 0.4291958
000180 b2 b5 da be 8a 0f bb c0 d7 00 8c bf 2f 8d 4c be
       -0.42716748 -5.845647 -1.0937756 -0.19975732
000190 2f 1a 37 3f cc 63 7a be 65 c0 a8 3f 9c ff 54 c0
       0.7152433 -0.24452132 1.3183714 -3.3281012
0001a0 d3 21 95 be b3 ce 3b bd 6e 8c 1d c0 f3 3d c4 c0
       -0.29127368 -0.04585142 -2.4616961 -6.132562
0001b0 82 28 54 3f 25 29 80 c0 27 bb 92 c0 63 ca c3 3f
       0.8287431 -4.0050225 -4.5853457 1.5296139
0001c0 4f f0 91 c0 09 2d 1e be 93 be b3 3e 5d 66 59 be
       -4.5605845 -0.15446867 0.35106334 -0.21230455
0001d0 56 cc 7f 3e e1 df 1d 3f 9a d2 1d bf 6d f0 7a 3e
       0.24980292 0.6166974 -0.6164948 0.24505778
0001e0 37 8e 80 be de 02 13 3f ca 9b ac c0 a6 6d c6 c0
       -0.251085 0.5742625 -5.394017 -6.200885
0001f0 b3 58 6e bf 7f 69 f2 3e 3d 6b d8 c0 8b de 90 3f
       -0.93104094 0.47346112 -6.7630906 1.1317915
000200 5f 28 f7 bf f8 74 95 3f 63 cd c6 3e 52 41 e3 bf
       -1.9309195 1.1676321 0.38828573 -1.7754309
000210 14 96 50 c0 c9 ff 64 3f 42 00 b0 c0 62 9f b2 c0
       -3.25916 0.894528 -5.5000315 -5.581956
000220 a8 69 97 bf 39 4b f4 3e 98 11 8e 3e 6a 83 d8 3e
       -1.1829119 0.4771364 0.27747798 0.4228776
000230 bf 6a be c0 02 92 4e c0 4c 65 d1 3d 3b 18 ed bd
       -5.9505305 -3.2276616 0.10224399 -0.11576887
000240 d3 0f 15 bf c8 4c 4a bd 7d 50 82 be ae ce 9f 3e
       -0.5822727 -0.04938963 -0.25452033 0.31212372
000250 fc 21 2b 3e 3c 80 da 3e c5 00 27 be 56 3b 05 bf
       0.16712183 0.4267596 -0.16308887 -0.52043664
000260 ed f5 cb c0 cb 18 02 3f bb 9a 0e c0 63 f1 98 3f
       -6.37377 0.5081908 -2.228194 1.1948665
000270 bd 7d af bf f0 80 18 c0 b6 3a 9b 3f bd 1c 00 3f
       -1.3710247 -2.3828697 1.2127292 0.5004385
000280 73 8f f8 bf f8 74 06 bf 48 e2 a0 bf 63 f3 b4 3f
       -1.9418777 -0.5252223 -1.2569056 1.4136776
000290 8f 58 4f 3e 51 4b e4 bf fd 9c 8f 3f 02 ac ac bd
       0.20248626 -1.7835485 1.1219784 -0.084312454
0002a0 2e 13 ce c0 c8 16 74 3f 1a 01 fd 3e 2f 2e 7c 3e
       -6.4398413 0.9534726 0.49414903 0.24626993
0002b0 7c 6a 87 c0 ef 7a 1d 3f 63 ce a1 c0 db 09 09 c0
       -4.2317486 0.61515707 -5.0564437 -2.1412265
0002c0 f0 8f 0d c0 c9 fa bd c0 73 bd 17 3e 28 0b 7e bf
       -2.2119102 -5.9368634 0.14818363 -0.99235773
0002d0 99 fa 36 3f 13 4a 73 3f 34 f5 6a 3e 9e 97 50 3e
       0.7147613 0.95034903 0.229451 0.20370337
0002e0 f8 0d 36 3f b1 ac 67 c0 3a b4 ab c0 d6 14 82 c0
       0.71115065 -3.6199152 -5.3657503 -4.0650434
0002f0 96 24 6f 3f 0b fe d9 be d1 35 85 bf ff 0e 88 c0
       0.934152 -0.42576632 -1.0407048 -4.2518306
000300 f6 89 32 3f 03 73 69 c0 73 14 ee bf 88 ad 79 c0
       0.6974176 -3.6476448 -1.8599991 -3.9012165
000310 92 bd 54 3f a0 60 3e c0 98 92 23 c0 06 e5 e0 be
       0.8310176 -2.9746475 -2.5558224 -0.4392473
000320 3c a7 78 3e 2e cb 6c bf 71 15 7d c0 04 28 8b c0
       0.24282545 -0.9249753 -3.9544337 -4.3486347
000330 73 35 8d 3f 26 d0 cd 3f a3 6d 28 c0 f9 3e 30 c0
       1.1031936 1.6079147 -2.6316917 -2.7538435
000340 31 b5 d3 bf f6 8f fb 3e 3e d9 61 c0 e4 4c f1 3f
       -1.653967 0.4913327 -3.5288844 1.885159
000350 d8 3b 95 bf 86 1d d8 c0 fd 44 af bf 54 62 e8 3e
       -1.1658888 -6.753604 -1.3692929 0.45387518
000360 85 25 e2 be f0 ad 62 bf 8b 7e 92 c0 19 5a cd 3f
       -0.4416925 -0.8854666 -4.577947 1.6043121
000370 26 2c 11 3f 7c 26 94 c0 4c 89 6c bf 4b 23 12 3d
       0.5670799 -4.629698 -0.92397 0.03567819
000380 92 67 4b c0 42 8d da bc 82 ad fa 3e 1c 3a a4 bf
       -3.1781964 -0.026678685 0.489605 -1.2830234
000390 8c f1 71 c0 44 ad da c0 8a 33 03 c1 bb 1c 5c 3f
       -3.7803679 -6.8336506 -8.200083 0.8598134
0003a0 74 7a 00 c0 49 bf 0a 3f 7d f3 6a 3f 6a 45 c5 c0
       -2.007474 0.5419813 0.91777784 -6.1647234
0003b0 8d cb 7d c0 7f 38 3c 3e 53 2b b7 c0 e8 65 cc bf
       -3.9655488 0.18380927 -5.7240386 -1.5968599
0003c0 15 64 00 3d a6 53 de bf bf 60 eb c0 df df db bc
       0.031345446 -1.7369277 -7.35556 -0.026840148
0003d0 9d 28 5c 3f 19 1a af bf c1 8c 8c 3c 9e e7 df be
       0.8599947 -1.3679839 0.01715696 -0.43731397
0003e0 a3 74 b7 be 55 57 fe bf e6 5b 91 c0 ad 68 81 3f
       -0.35831174 -1.9870402 -4.542468 1.011007
0003f0 97 1f 07 40 cf d4 b3 c0 66 82 97 c0 69 3f ac 3f
       2.111303 -5.6197276 -4.734668 1.3456851

linearlayer3.bias f4 [57]
000000 01 1b 33 bf 19 7b 49 c0 37 f9 0b c0 5c f8 f0 bf
       -0.6996308 -3.1481383 -2.1870859 -1.8825793
000010 d8 db ed be f8 e1 1a bf 01 81 af bf 97 9f bf bf
       -0.4645679 -0.6050105 -1.3711244 -1.4970578
000020 54 17 be bf 94 85 39 c0 0d 9f e6 be 4d 45 03 bd
       -1.4850869 -2.898778 -0.4504322 -0.032048512
000030 23 53 9a 3d c5 e4 2b bf 0a c1 71 3e b5 52 72 3e
       0.07535388 -0.6714595 0.23608795 0.23664363
000040 71 17 04 c0 b8 3a 74 3e 32 b9 d6 be 46 c3 19 be
       -2.0639307 0.23850524 -0.41938168 -0.15015897
000050 1c 73 35 bf 80 8a 8e be 07 c8 85 be f7 41 89 3d
       -0.7087877 -0.27840042 -0.2612917 0.06702035
000060 a9 8d 77 3f 9c 5d 6e bf 61 22 b1 be 1e ce 1b 3f
       0.9670053 -0.93111587 -0.34596542 0.60861385
000070 ab c4 c6 bf b8 23 8a bd 6f 25 f2 bf f3 e6 c1 3e
       -1.5528768 -0.06745094 -1.8917674 0.37871513
000080 e8 b2 18 3e 1a f0 be bf bb e6 f4 3e 9d 8b 9f bf
       0.14911997 -1.4917023 0.47832283 -1.2464482
000090 1d 3e 1a c0 9a a0 be bd 1a e1 d9 bd c6 ac 40 be
       -2.410041 -0.09307976 -0.10638638 -0.18815908
0000a0 73 a1 82 bf 59 61 ba bf 75 91 01 bf c5 51 3b be
       -1.020552 -1.4560958 -0.50612575 -0.18292911
0000b0 48 74 80 bf 16 46 06 bf 70 17 1e c0 90 97 cb bd
       -1.0035486 -0.5245069 -2.4701805 -0.09941018
0000c0 ac f0 23 bf ab 54 d2 bf be 99 ce bf 7a 1a 44 bf
       -0.6403911 -1.6432089 -1.6140668 -0.766029
0000d0 50 7c 47 bf 0d 21 43 be 21 00 dc bd 21 b0 e4 bd
       -0.7792406 -0.19055577 -0.10742212 -0.111664064
0000e0 83 fb 1b 3f
       0.6093065
