app/DATA.pth (torch, 17269 bytes, 14 tensors)

linearlayer1.weight f4 [8, 209]
0	0xbda5fba4	-0.08104637
1	0x3edf961c	0.43669212
2	0xbe7d6863	-0.24746852
3	0xbf7c60d1	-0.9858523
4	0x3e06c582	0.13161281
5	0x3f79d767	0.975943
6	0xbf28f417	-0.6599745
7	0xbe0d5cc0	-0.13804913
8	0x3fc64a42	1.5491412
9	0xbf5051db	-0.813749
10	0x3f0864be	0.5327872
11	0x3f0c02af	0.54691595
12	0x3f3021af	0.688014
13	0x3f5de9a8	0.86684656
14	0xbf116f46	-0.56810415
15	0xbfd88545	-1.6915671
16	0x3f2c9cad	0.6742657
17	0xbe31dd24	-0.17369515
18	0xbf052515	-0.5200971
19	0xbf92efc3	-1.147942
20	0x3e7040de	0.23462245
21	0x3f4c4e2f	0.798068
22	0x3f82968f	1.0202197
23	0x3e5513f5	0.20808394
24	0xbde7fb90	-0.113272786
25	0xc021472c	-2.519969
26	0x3fe12fd3	1.759272
27	0x3fbd5541	1.4791642
28	0xbf14d6d8	-0.58140326
29	0x3fcb0f6f	1.5864085
30	0xbd769816	-0.060203634
31	0xbe5d2b6a	-0.21598592
32	0xbf95062f	-1.1642512
33	0xbd3ffe05	-0.04687311
34	0x3eea0bff	0.45712277
35	0x3fc404c0	1.531395
36	0x3ed11120	0.40833378
37	0xbe80fcc1	-0.25192836
38	0xbd5b0063	-0.053467166
39	0x3f00fcc5	0.50385696
40	0xbe1ca005	-0.15295418
41	0x3f8ebff9	1.1152335
42	0xbf534148	-0.82521486
43	0x40027020	2.0380936
44	0x3f8a8368	1.0821352
45	0x3ec7962c	0.3898176
46	0xbeba55a7	-0.36393473
47	0x3ecdf839	0.4022844
48	0x3d6fb1b1	0.05851907
49	0xbef1e6e3	-0.47246465
50	0xc0252532	-2.5803952
51	0x3ea52457	0.32254288
52	0x3f90b965	1.1306578
53	0x3f82a2f4	1.0205979
54	0x3ef0644e	0.46951526
55	0x3ff31c10	1.8992939
56	0xbda21a57	-0.0791518
57	0x3e90a762	0.28252703
58	0x3e3503b2	0.17677191
59	0xbed4b044	-0.4154073
60	0xbe3984ce	-0.18117067
61	0xbe88109b	-0.2657517
62	0x3ee6d9ef	0.45088145
63	0xbf06d4e5	-0.526686
64	0x3e51d4d6	0.20491347
65	0xbf9179b4	-1.1365266
66	0x404b7314	3.1788988
67	0xbdf7228a	-0.12067135
68	0xbe97d6a9	-0.2965596
69	0xbe8899e7	-0.26679918
70	0xbf49332a	-0.78593695
71	0x3f6fd15e	0.93678844
72	0xbdbd61c3	-0.09247162
73	0x3ef9a308	0.48757195
74	0xbe3c6d17	-0.1840099
75	0xbd9da8ce	-0.076982126
76	0x3d9f4251	0.07776321
77	0xbe25bbba	-0.16184893
78	0x3ed44d60	0.41465282
79	0xbd87a8fa	-0.066240266
80	0x3f2f0578	0.6836772
81	0x3ff43960	1.908001
82	0x3f0e5b21	0.556078
83	0x3f86fe43	1.0546345
84	0x3f8c1152	1.0942786
85	0xbd3d3a85	-0.046198387
86	0x3f00a0e9	0.5024553
87	0x3f859842	1.043709
88	0x3ee8a3c4	0.45437443
89	0x3fa1f3ae	1.265249
90	0xbed32e83	-0.41246423
91	0xbe353960	-0.17697668
92	0x3f1f1542	0.6214181
93	0xbfe44145	-1.7832419
94	0x3f3e4840	0.74328995
95	0x402b3f57	2.675741
96	0x3f49ae1d	0.787813
97	0x40598e95	3.3993275
98	0x3dc19249	0.0945173
99	0x3d346c3f	0.044048544
100	0x3d927055	0.07150332
101	0xbeeddd27	-0.46457788
102	0xc0348524	-2.8206263
103	0x3f3e335c	0.7429712
104	0x3eb66ba7	0.35629007
105	0x3f943096	1.1577327
106	0xbefda8c4	-0.4954282
107	0xbe28808a	-0.16455284
108	0x3f964255	1.1738993
109	0x3e9a4ced	0.30136815
110	0xbd1ec037	-0.03875753
111	0xbdb508e6	-0.08839588
112	0xbe996b92	-0.29964882
113	0xbfd1bcba	-1.638572
114	0x3faad60f	1.3346575
115	0xbeecaa0c	-0.46223485
116	0x3fffea1a	1.9993317
117	0xbdf2de41	-0.11858798
118	0x3dd87705	0.10569576
119	0xbecbe154	-0.3982035
120	0x3fa990a7	1.3247269
121	0xbf934e77	-1.150832
122	0xbf8cea71	-1.1009046
123	0xbf566cc2	-0.837597
124	0xbf174c69	-0.5910097
125	0x3fea946a	1.8326542
126	0xbdb39774	-0.08769122
127	0x3f7c5d2d	0.98579675
128	0xbe2e31b3	-0.17011146
129	0xbe2553e1	-0.16145279
130	0x3ed4be59	0.41551474
131	0xbf2f8b0c	-0.68571544
132	0x3f93ac33	1.1536926
133	0xbe4df60e	-0.20113394
134	0x3eba173b	0.36345848
135	0x3e94aaca	0.29036552
136	0x400a2859	2.1587126
137	0x3e070cc2	0.1318846
138	0xbea64dde	-0.32481283
139	0x3ead35c4	0.33830082
140	0xc00e6f64	-2.2255487
141	0x3f6dd8c9	0.9290891
142	0xbe9fc7a3	-0.31206998
143	0x3f807760	1.003643
144	0xbe091264	-0.13385922
145	0x4004afec	2.0732374
146	0xbff02cb1	-1.8763639
147	0x3f4a3eba	0.79001963
148	0x3f5baf7e	0.85814655
149	0xbe2145f4	-0.15749341
150	0x4080fa4f	4.0305552
151	0xbe0d2ad2	-0.13785866
152	0xbf9e39f5	-1.2361437
153	0xc04f400d	-3.2382843
154	0xbf2586c3	-0.64658755
155	0xbd93b145	-0.07211546
156	0xbf3e8192	-0.7441646
157	0xbdd94157	-0.10608166
158	0x40325b49	2.7868216
159	0x3e0f369d	0.13985677
160	0x4051769c	3.2728643
161	0xbe45fe4c	-0.19335288
162	0xbe257372	-0.1615732
163	0x3f3f78e8	0.74793863
164	0x3fe5945b	1.79359
165	0xbdabb5f3	-0.083843134
166	0x3d522700	0.051306725
167	0xbe1e1120	-0.1543622
168	0x3f89944d	1.0748383
169	0x400a7cbf	2.163864
170	0xbfd2d6c4	-1.6471791
171	0xbf4a1043	-0.78931063
172	0xbf2348e2	-0.63783085
173	0xbf4daf7a	-0.8034588
174	0x3e401489	0.18757834
175	0x3ececa6a	0.40388805
176	0xbdd2007f	-0.10254001
177	0x3f43e986	0.76528203
178	0x3fb7ae6b	1.4350103
179	0xbca4e335	-0.020127872
180	0x3f39dcb8	0.72602415
181	0xbd6f1f93	-0.05837972
182	0x3f6baeb9	0.9206348
183	0xbf244caa	-0.6417948
184	0x3fdf87c2	1.7463305
185	0xbe6912f2	-0.22761133
186	0xbf43f268	-0.7654176
187	0x3e4ef154	0.20209247
188	0x3d95fd4a	0.07323702
189	0xc03ec025	-2.9804776
190	0xbc3dd1e3	-0.011585685
191	0x3eea1350	0.4571786
192	0x3e6bd0bd	0.23028846
193	0x3f113697	0.5672392
194	0xbe017248	-0.12641251
195	0x3fe409c0	1.7815475
196	0xbf4049f0	-0.7511282
197	0x3e0c2d85	0.1368924
198	0xbe56873f	-0.2095003
199	0x3f1ecf89	0.62035424
200	0x3d7c57bb	0.061607104
201	0xbf513b86	-0.8173145
202	0x3dfa7767	0.122298054
203	0x3efdb8e1	0.49555114
204	0xbf868b1c	-1.0511203
205	0x3edb5b64	0.42843163
206	0xbdf58a3a	-0.11989255
207	0xbfdf3fb7	-1.7441319
208	0xbda2cd97	-0.079493694
209	0x3f22a75b	0.63536614
210	0x3f110b34	0.5665772
211	0x3e9ee12b	0.31031165
212	0x3f9650dc	1.1743426
213	0xbe09dd6e	-0.13463375
214	0x40061f9d	2.0956795
215	0x3e0edd1f	0.13951539
216	0xbe2cbf41	-0.16869833
217	0xbf842ffd	-1.0327145
218	0x402af5d6	2.6712546
219	0x3d54deaf	0.05197018
220	0x3e548da7	0.20757161
221	0x3eee5297	0.46547386
222	0x3fd5e4d3	1.6710457
223	0x403b9932	2.9312253
224	0x402e94c1	2.7278292
225	0x3ef17009	0.4715579
226	0x3e2b8d8e	0.16753218
227	0x3f4db0b1	0.80347735
228	0x3e70ea0f	0.23526786
229	0x3e06425c	0.13111252
230	0x3fc1e64c	1.5148406
231	0xbf2cbcb9	-0.6747547
232	0xbdd73ea5	-0.10509995
233	0x3e1571c7	0.14594184
234	0x4066e87f	3.6079404
235	0xbf6eb9be	-0.9325217
236	0xbf5b947e	-0.85773456
237	0x3f46286e	0.7740544
238	0xbefa6510	-0.4890523
239	0xbdb95a2a	-0.090504006
240	0x3f78acfd	0.9713896
241	0x3fda2467	1.7042359
242	0x3bb38294	0.0054782126
243	0x3f93bd6c	1.1542182
244	0x400dbb9c	2.2145758
245	0x3fbe930b	1.4888624
246	0x3fa07ec2	1.2538683
247	0xbe1ecb0f	-0.15507148
248	0x3ebb240d	0.36550942
249	0x3d5b9534	0.053609088
250	0x3fda8141	1.7070695
251	0x3f41e0cc	0.7573364
252	0x3f298d02	0.66230786
253	0x3faeb048	1.3647547
254	0x3ffb260a	1.9620984
255	0x3fbab489	1.4586345

linearlayer1.bias f4 [8]
0	0x3f24e281	0.6440812
1	0x3f391617	0.7229933
2	0x3f845e60	1.0341301
3	0x3f0f2ddd	0.55929357
4	0x3f3c09cc	0.7345245
5	0x3f1caffd	0.61206037
6	0x3f53f011	0.8278819
7	0x3f8997e2	1.0749476

bn1.weight f4 [8]
0	0x3f800000	1.0
1	0x3f800000	1.0
2	0x3f800000	1.0
3	0x3f800000	1.0
4	0x3f800000	1.0
5	0x3f800000	1.0
6	0x3f800000	1.0
7	0x3f800000	1.0

bn1.bias f4 [8]
0	0x00000000	0.0
1	0x00000000	0.0
2	0x00000000	0.0
3	0x00000000	0.0
4	0x00000000	0.0
5	0x00000000	0.0
6	0x00000000	0.0
7	0x00000000	0.0

bn1.running_mean f4 [8]
0	0x00000000	0.0
1	0x00000000	0.0
2	0x00000000	0.0
3	0x00000000	0.0
4	0x00000000	0.0
5	0x00000000	0.0
6	0x00000000	0.0
7	0x00000000	0.0

bn1.running_var f4 [8]
0	0x3f800000	1.0
1	0x3f800000	1.0
2	0x3f800000	1.0
3	0x3f800000	1.0
4	0x3f800000	1.0
5	0x3f800000	1.0
6	0x3f800000	1.0
7	0x3f800000	1.0

linearlayer2.weight f4 [8, 8]
0	0x3eb6239b	0.3557404
1	0xbebdbebd	-0.37059584
2	0xbf1d91d2	-0.6155063
3	0x3e7648f5	0.24051268
4	0x3d0b34c2	0.03398586
5	0x3ddb1386	0.10697083
6	0x3f062152	0.5239459
7	0x3f600b45	0.87517196
8	0x40253bc9	2.581774
9	0x3f1cba52	0.612218
10	0x3efb86f1	0.4912639
11	0xbfc59dc3	-1.543877
12	0x3eab6470	0.33475065
13	0xbe2bda9e	-0.16782615
14	0x3ff39266	1.9029052
15	0xbfc0fae9	-1.5076572
16	0x3fa57c0a	1.2928479
17	0x3fbedc21	1.4910928
18	0x3fa54224	1.291081
19	0x3f78aec5	0.9714168
20	0xbe6643bd	-0.22486778
21	0xbe4799ab	-0.19492213
22	0xbfe78b01	-1.8089296
23	0x3e8c82e0	0.274436
24	0xbf8c5b2b	-1.0965322
25	0x3cbfed22	0.023428503
26	0x3fd8c324	1.6934552
27	0x3ece2c08	0.40267968
28	0x3fdaa23f	1.7080764
29	0x3f6a8b9b	0.9161927
30	0xc0013770	-2.0190086
31	0xbf74fcdc	-0.9569833
32	0xbf3cc6db	-0.7374093
33	0xc0330ff4	-2.7978487
34	0x3f4e3515	0.80549747
35	0x400c2f95	2.1904042
36	0x3fce5e4a	1.6122525
37	0xbf46958f	-0.7757196
38	0x3fa3faf5	1.2810961
39	0x4013505e	2.3017802
40	0x3f7e2d36	0.99287736
41	0xbe5d49cb	-0.21610181
42	0x3f828d41	1.0199357
43	0xbffe20a5	-1.9853712
44	0x3f7eabff	0.99481195
45	0xbd96b3fd	-0.07358549
46	0xbfa1710c	-1.2612624
47	0x401c7fa1	2.4452899
48	0x3ecc2876	0.3987462
49	0x3e306f1d	0.17229886
50	0xbfd4599c	-1.6589847
51	0x3f399a99	0.7250152
52	0x3fcee6d4	1.6164193
53	0x402c4db8	2.6922436
54	0x3f8f5958	1.119914
55	0xbeac515a	-0.33655816
56	0xbfb8dd06	-1.4442451
57	0x401bfe59	2.4373991
58	0x3ffe274f	1.9855746
59	0xbeb1c4f9	-0.3472059
60	0xbfa09a05	-1.2547003
61	0x3f12ed58	0.5739341
62	0x3feb353a	1.8375618
63	0x3fe21fb3	1.7665924

linearlayer2.bias f4 [8]
0	0xbd03d6bb	-0.032187205
1	0x3ea52616	0.3225562
2	0x3dc00545	0.09376005
3	0x3ee624b7	0.44949886
4	0x3e3a49ce	0.18192217
5	0x3f351a60	0.7074337
6	0x3f789a8b	0.97110814
7	0x3f3d2da2	0.73897755

bn2.weight f4 [8]
0	0x3f800000	1.0
1	0x3f800000	1.0
2	0x3f800000	1.0
3	0x3f800000	1.0
4	0x3f800000	1.0
5	0x3f800000	1.0
6	0x3f800000	1.0
7	0x3f800000	1.0

bn2.bias f4 [8]
0	0x00000000	0.0
1	0x00000000	0.0
2	0x00000000	0.0
3	0x00000000	0.0
4	0x00000000	0.0
5	0x00000000	0.0
6	0x00000000	0.0
7	0x00000000	0.0

bn2.running_mean f4 [8]
0	0x00000000	0.0
1	0x00000000	0.0
2	0x00000000	0.0
3	0x00000000	0.0
4	0x00000000	0.0
5	0x00000000	0.0
6	0x00000000	0.0
7	0x00000000	0.0

bn2.running_var f4 [8]
0	0x3f800000	1.0
1	0x3f800000	1.0
2	0x3f800000	1.0
3	0x3f800000	1.0
4	0x3f800000	1.0
5	0x3f800000	1.0
6	0x3f800000	1.0
7	0x3f800000	1.0

linearlayer3.weight f4 [47, 8]
0	0xc06e3b9d	-3.7223885
1	0xc00d4386	-2.2072463
2	0xbdfda275	-0.12384502
3	0x3f17acdf	0.59248155
4	0xc03b0c6c	-2.9226332
5	0xc0afca74	-5.4934635
6	0xbece104f	-0.40246817
7	0x3f364878	0.7120433
8	0x3ee194c8	0.44058824
9	0xbf7b83fc	-0.9824827
10	0xc03dd967	-2.9663942
11	0xc0827ec7	-4.0779757
12	0xbf96cb6a	-1.1780827
13	0x3e052bf6	0.13005051
14	0xbfb19e00	-1.3876343
15	0x3f28fea4	0.6601355
16	0x3fa9ca30	1.3264828
17	0xbfcc583a	-1.5964425
18	0xbf255483	-0.6458208
19	0xc06afb9d	-3.6716073
20	0x3ef5e75b	0.48028073
21	0xc032c6ac	-2.793376
22	0xc03ce9d8	-2.9517727
23	0x3ee14575	0.43998304
24	0x3f059a2e	0.52188385
25	0xbe439adb	-0.19102041
26	0xc0907391	-4.514107
27	0x3faaf29a	1.3355286
28	0x3f87af50	1.0600376
29	0xc0438bb0	-3.0554008
30	0x3fc030a7	1.5014848
31	0xc050b6cf	-3.2611578
32	0x3d866231	0.06561697
33	0x3e775f11	0.24157359
34	0x3f08b3d1	0.5339938
35	0x3ec0fe77	0.3769414
36	0xbf5d930e	-0.8655251
37	0xbe9c910b	-0.3057941
38	0x3de52dbe	0.11190365
39	0xbf9f4653	-1.2443336
40	0x400ee4dc	2.2327185
41	0x3f964d15	1.1742274
42	0xc01c057e	-2.4378352
43	0xc00d19c8	-2.2046986
44	0xbe66b6af	-0.22530626
45	0x3fafb91f	1.372837
46	0xbee45ac0	-0.44600487
47	0xc083af80	-4.1151733
48	0xc00e6fda	-2.2255769
49	0xc03789e8	-2.8677921
50	0x3db35b70	0.08757675
51	0x3fd7a62f	1.684759
52	0x3f2fe6ea	0.6871172
53	0xc048b1c9	-3.1358511
54	0x3f9dd3be	1.2330244
55	0xc00e5e33	-2.2244995
56	0x3f07a7d9	0.5299049
57	0x3f6213cc	0.8831146
58	0xc01bb905	-2.4331677
59	0xbfa34139	-1.2754279
60	0xc05fd27c	-3.497222
61	0xbf4e1fce	-0.8051728
62	0x3fa1b353	1.263285
63	0xbfa5b449	-1.2945644
64	0xc00c1183	-2.1885688
65	0x3e5c5263	0.21515803
66	0xbfca977c	-1.5827479
67	0xc046219d	-3.0958016
68	0xc0a1ae23	-5.052507
69	0xc04f7a32	-3.2418332
70	0x3e26db8a	0.16294685
71	0x3f3f205d	0.7465876
72	0xc004d9a0	-2.0757828
73	0xbf079dcb	-0.5297515
74	0xbf8c6e6b	-1.0971197
75	0x3f21688b	0.63050145
76	0x3fbf7b84	1.4959569
77	0xc0201a7b	-2.5016162
78	0xbfe50cc9	-1.7894527
79	0xbeb55791	-0.3541837
80	0x3f8b2918	1.0871916
81	0x3faa626e	1.3311288
82	0xc002e203	-2.0450447
83	0xbfe71fa5	-1.8056532
84	0x3dd43a0c	0.10362634
85	0xc09152db	-4.541364
86	0x3e5e2272	0.21692827
87	0xbfc76ab1	-1.5579435
88	0x3f672eac	0.9030559
89	0xc05927b5	-3.3930485
90	0xbf16ae0e	-0.58859336
91	0x3f0b8796	0.5450376
92	0x3fba8ed6	1.457484
93	0x3ca9bdc2	0.020720366
94	0xc05936a4	-3.39396
95	0xbf8bce21	-1.092228
96	0xbff35674	-1.9010758
97	0xc074c4c0	-3.8245087
98	0x3f6ed356	0.93291223
99	0xbed08e7b	-0.40733704
100	0x3e8d441c	0.27591026
101	0xbfbf42d3	-1.4942268
102	0xc011d9a5	-2.278909
103	0xbda6955e	-0.08133958
104	0xbeb8c89b	-0.3609055
105	0xbff4d26e	-1.9126718
106	0x3e3c7285	0.1840306
107	0xba0ff7ac	-0.0005491923
108	0x3f0558ba	0.5208851
109	0x3f930b48	1.1487818
110	0xc013388b	-2.300326
111	0xbfa395f3	-1.2780136
112	0x40570ce8	3.3601627
113	0xbe9f9231	-0.31166223
114	0xbf4336ca	-0.76255476
115	0xc0152194	-2.3301744
116	0x3e53dbdf	0.20689343
117	0x3f432aae	0.76237
118	0xc076b88a	-3.8550134
119	0xbfd20fcd	-1.6411072
120	0xbff74ad0	-1.9319706
121	0x3eaaf738	0.33391738
122	0x3e9b31a8	0.30311322
123	0x3ed69838	0.4191301
124	0xbf4aa577	-0.7915873
125	0xbd0e29dc	-0.03470789
126	0x3d9d7048	0.076874316
127	0xbf84a374	-1.0362382
128	0xc04972e7	-3.147638
129	0x3dfcc55d	0.123423316
130	0xc05badfd	-3.4324944
131	0x3f99b65e	1.2008779
132	0xc0252b59	-2.5807707
133	0xbf92f8d5	-1.1482188
134	0x3e9e758a	0.3094905
135	0x3e8c91a7	0.27454874
136	0x3f27c137	0.655292
137	0x3ee5ffd6	0.4492175
138	0xbfba2bc5	-1.4544607
139	0xc07df355	-3.9679768
140	0x3f12404a	0.5712935
141	0xbf7c4c55	-0.98553973
142	0xbfa9bf9b	-1.3261598
143	0xbeb235dd	-0.3480672
144	0xbfd04414	-1.6270776
145	0xc05ef830	-3.4838982
146	0xbffc0046	-1.9687583
147	0x3fb7a686	1.4347694
148	0x3fb43f95	1.4081904
149	0xbfc27d8e	-1.5194566
150	0x3e0b44c5	0.13600452
151	0xbee80596	-0.45316762
152	0x3efb279c	0.49053657
153	0xbfac6c92	-1.3470633
154	0xc05cef9a	-3.452124
155	0xbfb2184d	-1.3913666
156	0x3f8ac343	1.0840839
157	0xc0b582c1	-5.672211
158	0xbef75059	-0.48303488
159	0x3f008b7c	0.50212836
160	0xbe893f31	-0.26806024
161	0xbffcb449	-1.9742519
162	0xc06e7f19	-3.7265074
163	0x3f9b52bd	1.2134625
164	0xbf3bf58d	-0.73421556
165	0x3f75fa36	0.96084917
166	0x3f8cc120	1.0996437
167	0xbf57e791	-0.8433772
168	0x40011d46	2.0174117
169	0xc04da70e	-3.2133212
170	0x3f03f8f2	0.51551735
171	0xbedbed6e	-0.42954582
172	0x3fa1eac9	1.2649776
173	0xc0892956	-4.286296
174	0xbf51aceb	-0.81904477
175	0xc011ea88	-2.2799397
176	0x3fbb1de2	1.4618495
177	0xc065bc1e	-3.5896068
178	0xbfc57be2	-1.5428431
179	0xbf5cc99d	-0.8624514
180	0x3f3c38c9	0.7352415
181	0x4009448d	2.144809
182	0xbf92fc1c	-1.1483188
183	0xbfdf758b	-1.7457746
184	0x3ff73b7b	1.9315027
185	0xbd5bee52	-0.053694077
186	0xc05c958b	-3.4466274
187	0xc04193b3	-3.0246398
188	0x3f8644a1	1.0489694
189	0x3f0d379b	0.5516297
190	0xbff71389	-1.9302837
191	0xbf5973e5	-0.84942466
192	0xbe15940f	-0.14607261
193	0x3e9d7eaa	0.307607
194	0xc0983936	-4.7569838
195	0x3f14f413	0.5818493
196	0x3f34c22a	0.7060877
197	0xbff5cf3c	-1.9203868
198	0x3f3e82ad	0.74418145
199	0xbf45fedf	-0.7734203
200	0xbd04df97	-0.032439794
201	0xbf096b84	-0.5367968
202	0xbfb92e81	-1.4467317
203	0x3f73808d	0.9511803
204	0x3fd03de8	1.6268892
205	0x3f8df066	1.1088989
206	0x3f2be3d2	0.671445
207	0xc02a4041	-2.6601717
208	0xbfd89ff7	-1.6923817
209	0xbf5d3b55	-0.8641866
210	0xbf438fa4	-0.76391053
211	0x3e8c74f2	0.27432972
212	0x3d23a3d9	0.03995118
213	0xc0bd0c2b	-5.9077353
214	0x3f7ea9d5	0.99477893
215	0xbee29f3a	-0.44262105
216	0xc02c4607	-2.6917741
217	0xbfd34765	-1.6506163
218	0xbf4c4a26	-0.7980064
219	0xbfce8000	-1.6132812
220	0xbf112c89	-0.5670858
221	0xc0181bf1	-2.3767054
222	0xbf8c3306	-1.0953071
223	0x3f89c0b9	1.0761939
224	0xbfb7800a	-1.433595
225	0xc0849f64	-4.144457
226	0xbe9deda6	-0.30845374
227	0xbf91d9ca	-1.1394589
228	0xbfebd80d	-1.8425308
229	0x3f312f02	0.69212353
230	0xc0610590	-3.5159645
231	0x3eb5fc50	0.35544062
232	0x3ff44d9c	1.9086185
233	0xbf9f0148	-1.2422266
234	0xbf282bf7	-0.65692085
235	0xc0ae0e56	-5.43925
236	0xc04392a8	-3.0558262
237	0xbef5ee6d	-0.48033467
238	0xbfeb8183	-1.8398899
239	0x3ec87dc4	0.39158452
240	0xbfbf57c3	-1.4948658
241	0xbfe58668	-1.7931643
242	0xbfe4afc8	-1.7866144
243	0xbfddcf45	-1.7328879
244	0x3f175b82	0.59124005
245	0x3e64c0de	0.22339198
246	0xc07342a9	-3.8009436
247	0x3e76181b	0.24032633
248	0xbf2b4e5f	-0.6691646
249	0xc0962e5a	-4.693158
250	0xbf9c2f7d	-1.2201992
251	0x3f2dba1c	0.67862105
252	0x3e2a6efa	0.16643897
253	0x3f4ecbcf	0.8077974
254	0xbec5ec1b	-0.38656697
255	0xbeca65f2	-0.39530903

linearlayer3.bias f4 [47]
0	0xbf2219c0	-0.6332054
1	0xbe893c82	-0.26803976
2	0xbe86525f	-0.2623472
3	0xbf0d7b57	-0.55266327
4	0xbd72fd87	-0.059323814
5	0xbf937bbb	-1.1522135
6	0x3da46a3b	0.08028074
7	0xbe3e8077	-0.18603693
8	0xbffd9ff7	-1.9814442
9	0xbf34080f	-0.70324796
10	0xbe0c3547	-0.13692199
11	0xbf0c43ec	-0.5479114
12	0x3df2951a	0.11844845
13	0xc0008ac5	-2.0084698
14	0xbf51cbc7	-0.81951565
15	0xbe437b84	-0.19090086
16	0x3c372ff4	0.0111808665
17	0xbfe429f1	-1.78253
18	0xbde46a38	-0.11153072
19	0x3e9af61b	0.3026589
20	0x3f02a8a6	0.5103859
21	0x3f22fc0d	0.6366585
22	0x3ea81ecc	0.32835996
23	0xbeed7ee3	-0.4638587
24	0xbe7ed253	-0.2488492
25	0x3fdb3fdb	1.7128862
26	0xbd94732a	-0.07248528
27	0xbf7ea48a	-0.99469817
28	0x3cd0dec8	0.025496855
29	0xbfac55d8	-1.3463697
30	0x3eb7781b	0.3583382
31	0xbf6e863b	-0.9317357
32	0xbf40db2e	-0.7533444
33	0xbf9aa43a	-1.2081368
34	0xbf8a4ab2	-1.0804045
35	0xbd3ed134	-0.04658623
36	0xbf8b1b30	-1.0867672
37	0xbebbf0e3	-0.3670722
38	0xbd320ad9	-0.043467376
39	0xbfc58d32	-1.5433714
40	0xbf46aa85	-0.7760394
41	0xbcbc4306	-0.022981178
42	0xbf52bae3	-0.82316417
43	0xbf6e32ca	-0.9304625
44	0x3e4d27ae	0.20034668
45	0xbe294814	-0.16531402
46	0x3d3c0c54	0.045910195
